source/model/TFC_TDT_UNet/weights/vocals_transformer_0511.pth (torch, 675234 bytes, 146 tensors)

module.in_conv.weight f4 [24, 4, 1, 3]
000000 cd ae 92 3e f8 4e 45 bc 31 7b 39 be f6 14 89 3e
       0.28648987 -0.012042753 -0.181134 0.26773804
000010 c8 81 1b be df 15 32 be dd 12 4f be 12 9e e5 3d
       -0.15186226 -0.17391156 -0.2022204 0.1121179
000020 7e aa 97 3e 70 41 80 be f2 76 0b 3e 6e e8 67 3e
       0.29622263 -0.25049925 0.13619593 0.22647259
000030 24 bf 1e 3e 2f c2 13 3d b7 df 76 3e 94 50 ab 3d
       0.15502602 0.03607386 0.24108778 0.083649784
000040 f4 c6 65 3e 1a 37 84 3d 40 7f 7e be cb 85 cb 3c
       0.22439176 0.06455822 -0.2485323 0.02484407
000050 ab bc d3 bd c7 89 5c be d9 90 b2 bd 30 f3 f0 3d
       -0.1033872 -0.21536933 -0.08719034 0.11765134
000060 62 c2 41 be fd 94 04 be 54 e9 ca bd e1 20 c8 bd
       -0.18921807 -0.1294746 -0.09907785 -0.09771896
000070 d5 a3 10 3b 69 f3 95 be 22 70 bc 3d be db 71 be
       0.0022070308 -0.2928727 0.09201075 -0.23618981
000080 77 98 65 3e 32 a2 0d 3d d1 2e a5 be d2 07 9f 3e
       0.22421442 0.03457851 -0.3226228 0.31060654
000090 f1 05 24 3d 14 e5 64 3e 5a ef 2a 3d de 9a 06 3d
       0.04004473 0.22353011 0.04173217 0.032862537
0000a0 0b e5 b5 3d 9a 24 a4 3d f0 24 95 3d 69 7f dd 3e
       0.08881577 0.08014794 0.07282436 0.4326127
0000b0 f0 9e ee 3d 62 dc 8e 3d 1c 59 88 3e 36 ef 90 3d
       0.11651409 0.069756284 0.26630485 0.07076876
0000c0 87 c5 6d bd 11 86 b2 be 6d b9 2e be b0 1b d0 bd
       -0.058049705 -0.3486791 -0.17062922 -0.10161531
0000d0 20 dc 8d be 4d b0 0f 3d 12 c8 8b bc b7 ba a2 3e
       -0.27707005 0.035080243 -0.017063174 0.31783077
0000e0 95 2e 31 3e 54 a4 fb bc 68 b6 bd 3e 9b b0 0f 3e
       0.17302926 -0.030718006 0.37053227 0.14032213
0000f0 3c 15 e8 3d 90 cb 47 be e9 64 e6 3c 1d 32 d7 bd
       0.11332175 -0.19511247 0.02812429 -0.10507605
000100 16 e0 47 3e b3 59 48 bd 25 93 73 3e 3a d0 7a be
       0.19519076 -0.04891367 0.237866 -0.24493495
000110 61 4f d1 bd 43 dc 5e be be 2d 90 3e a2 ac b9 3d
       -0.102202184 -0.2176371 0.281599 0.0906613
000120 bf 14 6f 3e fe ec 0e bf bd e1 50 be 7a 22 2d bd
       0.23347758 -0.5583037 -0.20398612 -0.042269208
000130 c6 b0 93 be 8e 6a cd bd 7b 91 59 3e 1b f3 69 3e
       -0.28845805 -0.10030089 0.21246903 0.22846644
000140 77 44 8e 3a 53 be b7 3a 2f 8e 3c 3e 7e 89 01 bc
       0.0010854144 0.0014018513 0.18413614 -0.007906316
000150 13 b3 b0 3a 3d 51 c1 be 36 f7 ee 3d f2 5f 30 be
       0.0013481103 -0.37757292 0.116682455 -0.172241
000160 ab 8a 8c be 81 60 76 bd 0e 69 19 3d 18 72 8d be
       -0.27449545 -0.060150627 0.037453704 -0.2762611
000170 8e 18 75 3d 5a a7 d9 bc d1 95 30 be 0f ed 40 be
       0.05983787 -0.026569057 -0.1724465 -0.1884043
000180 4d 82 86 3d 6f 9c 3c be 72 e4 00 be 10 f8 16 be
       0.06567822 -0.1841905 -0.12587145 -0.14743066
000190 84 0b bb be db a1 cc bd 0c 48 96 bd 6c 6a a6 be
       -0.36532223 -0.09991809 -0.073379606 -0.32503068
0001a0 e3 92 ed bd eb 75 37 be cf 5a c8 be 47 03 86 bd
       -0.11600282 -0.17916076 -0.3913178 -0.06543594
0001b0 dd 98 d7 bd f2 6f cb be 7e da a7 3e b9 e2 8e 3d
       -0.10527203 -0.39733845 0.32783884 0.06976838
0001c0 8d f0 8d 3c 9c c2 6f be ec ee b8 be 78 44 02 3e
       0.017326618 -0.23414081 -0.36119783 0.12721431
0001d0 b5 4e 71 3d 83 89 75 be e6 5d 26 bd ba bf bc bd
       0.05891295 -0.23978238 -0.040616892 -0.092162564
0001e0 92 48 8b bb 1f 0f f3 bd 47 7d b0 bd 3e 49 a1 bd
       -0.0042505944 -0.118681185 -0.08617645 -0.07875298
0001f0 69 14 4a be bc 14 56 be 79 49 9d bd b0 68 dd bd
       -0.19734348 -0.20906347 -0.076800294 -0.10810983
000200 1d 0b b3 3e d7 26 0e 3c 29 5a 1f 3e 47 29 bf 3e
       0.34969416 0.008676252 0.15561737 0.3733618
000210 60 56 20 bd 2d 32 80 3e aa b8 16 be 9b 42 e9 bc
       -0.039144874 0.2503828 -0.14718881 -0.028474143
000220 d6 18 19 3e 19 96 c0 be 7f b5 d9 bc ae c6 56 3e
       0.1495088 -0.37614515 -0.026575802 0.20974228
000230 a2 92 aa 3d 5d 36 e3 bd 6e 5c 3b 3e b1 d0 99 bd
       0.08328749 -0.11094353 0.18296978 -0.07510508
000240 c9 fe f1 3c 56 35 22 3e 6d da e0 3d 82 d4 39 3e
       0.029540436 0.15840659 0.109791614 0.18147472
000250 78 19 0c 3f d2 9b a5 bc 3e e2 7a 3d d5 d6 5a bd
       0.5472636 -0.020215902 0.061250918 -0.053427536
000260 28 93 8d 3d 6f 6c 94 bd 19 50 ca 3e 83 67 b2 3a
       0.069128335 -0.072472446 0.39514235 0.0013611171
000270 6b 7c fa 3d 2d a9 8b 3e 9d 1f 9b 3d 6a e1 96 3d
       0.12230762 0.27277508 0.07574389 0.07367213
000280 14 04 af 3e 9d 2b 1c 3e d0 e0 b5 bd 18 2a 98 be
       0.341828 0.15251012 -0.0888077 -0.29719615
000290 f5 5e b5 bd 94 c8 87 bd b3 18 7b be 1a f0 82 bc
       -0.08856002 -0.06630054 -0.24521141 -0.01598363
0002a0 06 4b 9a 3c 86 b0 fe bd 28 38 fe bd 36 04 82 3d
       0.018834602 -0.12436013 -0.12413055 0.063484594
0002b0 aa 59 4c 3e d0 be 4a 3b 50 76 6e bd 67 25 8e 3c
       0.19956079 0.0030936487 -0.0582183 0.01735182
0002c0 9f 26 cd be 66 33 52 3e cf 3e 60 3e 50 c9 a7 be
       -0.40068528 0.2052742 0.2189896 -0.32770777
0002d0 fb e4 92 3d 3e c8 00 3e 1f b7 6d 3e 72 8e 20 bc
       0.07172581 0.12576386 0.23214386 -0.009799587
0002e0 6e d6 ea 3d ec 7a 87 3e fd 18 d0 3d 12 2a 15 3c
       0.114666805 0.2646097 0.10161016 0.009104269
0002f0 59 fa e1 bd ee 70 6f 3d 91 dc fa bc 2d ac f1 bd
       -0.11034078 0.058457308 -0.030622752 -0.11800418
000300 dd 8b 02 3e 9c 71 d1 3e 4d db aa 3d 5f 3c e8 bc
       0.12748666 0.4090699 0.083426096 -0.0283491
000310 72 16 91 3e 7e bf 0c 3e 91 59 b8 3d ea 10 56 3d
       0.28337437 0.13744923 0.090014584 0.052262224
000320 f0 e6 c5 bd ba df 90 3d bb a2 20 3e a0 a4 ef 3d
       -0.096631885 0.070739225 0.15687077 0.117013216
000330 d3 7a 31 bd e8 93 cf bd 2e b4 87 be 80 99 38 be
       -0.043330025 -0.10135633 -0.26504654 -0.18027306
000340 60 42 05 be b9 15 20 3e 70 3c 87 3e f3 44 f1 3d
       -0.13013601 0.15633287 0.26413298 0.11780729
000350 56 df 97 be 81 97 28 3c 78 55 a9 bd d7 5b a4 3e
       -0.2966258 0.010290028 -0.08268255 0.32101318
000360 e5 22 d5 bd 1a 87 9b be 78 02 b6 3d 0b 7e e5 bd
       -0.10407046 -0.30376512 0.088871896 -0.112056814
000370 d8 06 c4 be 44 6c e9 3d 9f bd 54 bd 4d 7a 9a bd
       -0.3828647 0.11397603 -0.05193865 -0.07542858
000380 d1 1a 03 be 92 4c 11 3e 20 68 9a 3e 0d 7f 2f 3e
       -0.12803198 0.14189366 0.30157566 0.1713831
000390 fa cd 98 be 19 0b 59 be 53 68 14 be 13 d0 88 3e
       -0.29844648 -0.2119564 -0.14492922 0.26721248
0003a0 53 77 db 3d be 13 d4 3d 7f 5c 69 3e a5 5c 10 3e
       0.10716119 0.10355328 0.2278919 0.14097841
0003b0 fb ca 11 be c2 28 92 be 5a c6 29 be 27 c0 66 be
       -0.14237587 -0.2854672 -0.16579571 -0.22534238
0003c0 78 30 70 3e 1a c2 d9 bd c2 3c f8 bc 16 f9 84 be
       0.2345599 -0.10632725 -0.03030241 -0.25971287
0003d0 f4 e1 6b 3d 39 81 09 3b af 5a 61 be 41 c3 1b 3e
       0.057588533 0.0020981564 -0.2200725 0.15211202
0003e0 61 9c 20 3d 06 17 5a 3e 6e ff 25 be 80 b5 ea bd
       0.039211635 0.21297845 -0.1621072 -0.114604
0003f0 78 14 14 bd 8f 1e bb bd d6 4f f8 bc 4a e9 c9 be
       -0.036152333 -0.09136688 -0.030311506 -0.39435798

module.in_conv.bias f4 [24]
000000 04 cd a4 38 18 68 33 be a4 25 09 be a6 53 be 3b
       7.8583165e-05 -0.17520177 -0.13393265 0.0058083115
000010 cc 50 e1 be b9 65 5c bc 85 cf 92 3a f1 71 6a bb
       -0.44006956 -0.013451987 0.0011200762 -0.003577348
000020 44 a5 9f be 18 3f 03 bb 4a 36 5e be 8b e8 e0 be
       -0.31180775 -0.002002662 -0.21700397 -0.43927416
000030 0b fd 4e 3b 42 66 1d bd c0 ee f0 3b 11 73 71 be
       0.003158393 -0.0384276 0.00735268 -0.2357905
000040 ce aa 9b be 4f 18 de 3d 44 22 33 ba ae 91 3f 3e
       -0.3040375 0.1084448 -0.0006833414 0.18707916
000050 6a b1 9b bd 4c ca d1 ba d4 82 ac 3b d6 7b dc ba
       -0.076021984 -0.0016005724 0.0052646194 -0.0016821574

module.down_blocks.0.unet_block.tfc_block.norm_conv_act_stack.0.0.weight f4 [24]
000000 02 a2 72 3f 5e 58 60 3f a6 9a 43 3f f2 0d 92 3f
       0.94778454 0.8763484 0.7640785 1.1410506
000010 36 72 8f 3f fc 1e 81 3f fb ce 85 3f f1 10 81 3f
       1.120673 1.0087581 1.045379 1.0083295
000020 7a 3b 9e 3f 55 5e 46 3f c6 ce 7b 3f 62 bf 62 3f
       1.2361901 0.7748769 0.98362386 0.88573277
000030 74 1e 6e 3f 03 92 88 3f df 83 7d 3f c1 85 7f 3f
       0.9301522 1.0669559 0.99029344 0.9981347
000040 44 f9 8f 3f e8 60 41 3f 82 8b 86 3f ee 56 51 3f
       1.1247945 0.7553849 1.0511324 0.8177327
000050 cf dc 77 3f 15 2d 64 3f d9 79 6e 3f f9 fd 6c 3f
       0.968213 0.8913129 0.93154675 0.9257503

module.down_blocks.0.unet_block.tfc_block.norm_conv_act_stack.0.0.bias f4 [24]
000000 63 da 20 3e 03 77 bc 3d b6 28 1c 3e 69 fd 0f 3e
       0.15708308 0.09202387 0.15249905 0.14061512
000010 3f 09 0e 3e 73 0f a2 3d c4 e7 28 3e 47 78 17 3e
       0.13870715 0.07913103 0.16494662 0.14791976
000020 db 73 21 3e 6a b3 0f 3e d7 1a 76 3e 01 57 21 3d
       0.15766852 0.14033285 0.24033676 0.039389614
000030 24 ee 78 3e 6b 8a 3a 3e f2 43 2b 3e fd ba 63 3d
       0.24309593 0.18216865 0.16725138 0.055598248
000040 4e c3 6a 3d 72 8c ca 3d 20 16 66 3e 80 20 bd 3d
       0.057315163 0.09890069 0.22469378 0.092347145
000050 50 cc b7 3d 67 66 f0 3d 49 c3 f9 3a 95 5b 7f 3d
       0.089745164 0.11738282 0.0019055392 0.0623432

module.down_blocks.0.unet_block.tfc_block.norm_conv_act_stack.0.0.running_mean f4 [24]
000000 16 0d 48 3e a6 92 a2 3d f0 80 4d 3e 54 67 e4 3d
       0.19536242 0.07938127 0.20068717 0.11152521
000010 28 42 bd 3d fe 40 8a 3d 96 a9 3d 3e 9a eb 15 3e
       0.09241134 0.067506775 0.18521723 0.14640656
000020 01 0d a1 3d c4 76 36 3e f7 14 db 3d f7 50 11 3e
       0.078638084 0.17818743 0.10697358 0.14191042
000030 b9 f8 0a 3e 22 7d c5 3d 93 31 3a 3e 04 7d 79 3d
       0.13571443 0.09643008 0.18182974 0.06091024
000040 c1 16 8c 3d fe 91 35 3e 30 66 19 3e 95 cf 7d 3e
       0.068402775 0.17731473 0.14980388 0.24786218
000050 8c 5a 4d 3d 6b e7 3d 3e 90 83 45 3e 16 63 3e 3e
       0.05013518 0.1854531 0.19288468 0.18592486

module.down_blocks.0.unet_block.tfc_block.norm_conv_act_stack.0.0.running_var f4 [24]
000000 0c b3 d7 3f 9a 8f e7 3e 01 42 1b 40 93 ca 0b 3f
       1.6851516 0.45226747 2.4259036 0.5460598
000010 ef 71 6a 3f 45 54 36 3e 38 c9 c8 3f 49 a4 79 3f
       0.915801 0.17805584 1.5686407 0.97516304
000020 63 ae 1c 3f ed e4 a8 3f 21 be 6c 3f ec 3c e6 3f
       0.61203593 1.3194863 0.92477614 1.7987342
000030 a1 70 4e 3f a4 2b 0a 3f 99 20 bc 3f 43 8a b9 3e
       0.8064061 0.5397284 1.4697448 0.36238298
000040 f7 23 fa 3e 42 98 90 3e 70 1f 89 3f 93 c9 a3 3e
       0.48855564 0.28241163 1.0712719 0.31989726
000050 a4 05 0a 3e f6 44 be 3f 82 2e cd 3f 2a b4 cd 3f
       0.13478714 1.4864795 1.6029818 1.6070607

module.down_blocks.0.unet_block.tfc_block.norm_conv_act_stack.0.1.weight f4 [24, 24, 3, 3]
000000 22 50 09 bd 3e 5f 26 bc 06 3d cf 3d c2 80 ac 3c
       -0.033523686 -0.010154543 0.10119061 0.02105749
000010 b2 7c a0 3c 83 f1 27 3e 26 3f 9a 3d d8 60 8f 3c
       0.01959071 0.16400723 0.07531576 0.017502233
000020 6e 09 b1 3c 41 61 de 3d c4 63 bb 3c 89 69 1f 3c
       0.021610942 0.108583935 0.02287472 0.009729751
000030 01 18 b2 3d 44 b9 e5 bd 30 1e f9 3d c3 8d d6 3d
       0.08695985 -0.11216977 0.12163961 0.10476258
000040 d1 c1 c2 3c c4 23 68 3d d8 4d b0 3c 9a 34 bf bc
       0.02377406 0.056674734 0.021521494 -0.023340512
000050 97 c0 82 bd 6d 15 54 be 51 e4 1b 3e c1 ab c5 bd
       -0.0638439 -0.20711298 0.15223815 -0.096519
000060 6b c7 c3 bc 04 8f 96 3d 39 69 42 bd 9b 58 c0 bd
       -0.0238988 0.07351497 -0.04746363 -0.093919
000070 10 fc a6 bc 2f 8f 86 bd 43 b1 6a bd 8f 26 36 be
       -0.020383865 -0.06570279 -0.057297956 -0.17788146
000080 97 5e 16 3e 41 86 62 3d 04 ef a9 3d ff 74 d2 bd
       0.1468452 0.055303816 0.08297542 -0.102762215
000090 38 07 88 bd b2 68 df bb d0 00 41 bb 59 5c eb 3c
       -0.06642002 -0.0068179006 -0.0029449947 0.028730558
0000a0 85 77 a7 3c 51 0d 39 3e e0 66 84 3c 55 87 c2 3d
       0.020442734 0.18071486 0.016162336 0.09498469
0000b0 f4 78 70 3d 24 81 bc 3d c1 8d b9 bc b1 f7 85 3d
       0.0587091 0.09204319 -0.022650601 0.06541384
0000c0 dc 8d cf 3d 8c 72 19 3d 29 71 2d bd c9 8d bf 3d
       0.101344794 0.037462756 -0.042344246 0.09353215
0000d0 cb 1b a2 3d 6f 6d 06 3d 1d d8 ab bd de 6c ff bd
       0.07915457 0.032819208 -0.0839083 -0.12471937
0000e0 76 6d 0a bd a9 e6 09 3d 83 75 92 3c 81 a2 a8 3d
       -0.033795796 0.03366724 0.0178783 0.0823412
0000f0 ef 3c 61 3d 41 ac 4e 3c 84 18 f8 3a 16 44 8f bc
       0.05498975 0.012614311 0.0018928205 -0.01748852
000100 d7 77 31 bd 25 ca 00 bd b1 f0 27 3b 92 51 f5 3d
       -0.04332718 -0.03144278 0.002562564 0.11978449
000110 4f e0 ac bd f4 f6 e5 3c cd 64 28 3d 30 e6 86 3d
       -0.08441221 0.028071858 0.041111756 0.065868735
000120 fe 04 05 3c 20 e0 6b bc e3 78 1c be 36 13 f4 bd
       0.008118866 -0.014396697 -0.1528049 -0.11917727
000130 d8 f8 13 3e 4e 32 4e bd ad db ac 3c b1 1f 9b 3d
       0.14450395 -0.050340943 0.021100843 0.07574404
000140 04 9c 8d 3d 0b f4 d3 3d fd 46 19 bc b8 22 04 be
       0.06914523 0.10349282 -0.009355304 -0.12903869
000150 65 17 aa bc 88 a0 f1 bc de 22 f5 3c 09 5f 9e 3d
       -0.020763109 -0.029495493 0.029923853 0.0773297
000160 ee 01 20 bd fb 0f d9 3d 62 e3 c4 bc ca ea 73 bd
       -0.03906434 0.10598751 -0.024034206 -0.059550084
000170 a7 20 96 bc bb ab 97 bd c2 98 89 3d 8b c4 10 bc
       -0.018326117 -0.07405802 0.06718589 -0.008835922
000180 c4 9f bb 3c 1e 04 0d 3d b9 a7 23 3c c2 13 86 3c
       0.02290333 0.034427755 0.009988719 0.016366843
000190 1e 36 bb 3d d3 7b e3 3c a9 60 09 3e a4 a5 f7 bd
       0.091411814 0.027769005 0.13415779 -0.1209214
0001a0 e9 88 25 3e ff aa 88 3d de 16 39 bb 5c e3 04 3d
       0.16165508 0.0667324 -0.002824239 0.03244339
0001b0 45 b0 c5 bc b7 ad 44 bd 71 07 9e bd 0c 21 a4 3d
       -0.024131903 -0.04801723 -0.07716263 0.08014116
0001c0 64 c4 93 bd bc 39 d0 3d 39 61 90 3d 54 60 88 bd
       -0.07215193 0.10167262 0.07049794 -0.06658998
0001d0 30 ff 3f bd d6 38 bb bd d6 6e 08 3d bc 9d 84 bd
       -0.046874225 -0.091417 0.033308826 -0.06475398
0001e0 bb 0d ef bd 76 ea 30 3e b6 c3 46 3d df f2 a8 3d
       -0.11672541 0.1727694 0.04852649 0.08249449
0001f0 9c 95 a5 3d 14 2a 19 3d 21 0b bd bd f0 e5 05 be
       0.08085176 0.037393644 -0.09230638 -0.13075995
000200 c5 f7 04 bc d4 1a 14 3e a5 69 06 be 16 9a 26 3e
       -0.0081157135 0.14463359 -0.13126238 0.16269717
000210 e7 df 02 3e 4a a0 81 bd b4 b4 26 bb 4b 32 6e 3d
       0.12780724 -0.06329401 -0.0025437297 0.05815343
000220 ce 06 33 3d a8 fe 5f 3d 37 3d 35 3d 46 ac 51 3c
       0.04370766 0.05468622 0.044247832 0.012797421
000230 f7 09 33 3e 84 d5 95 3d 23 cd 04 3e be 04 0b 3e
       0.1748427 0.073161155 0.12968878 0.13576028
000240 b3 64 2b bd 25 73 b1 3d 33 fa 00 3d 80 0d c4 bc
       -0.04184408 0.0866454 0.03148861 -0.023932219
000250 aa 73 28 bd 37 6b 33 3e 2f 36 e2 3d 03 6c 8a 3d
       -0.04112593 0.17521368 0.11045491 0.06758883
000260 79 5a 6d 3d 74 eb 28 bc 90 ca 4f bd 81 e3 7c bd
       0.05794761 -0.010310043 -0.050730288 -0.061740402
000270 22 10 63 3c 78 ec 3b 3d 81 9b 80 3c c8 89 29 3c
       0.013858827 0.04587981 0.01569915 0.010347791
000280 06 10 64 3d b6 46 5d 3d 02 6b 71 bd e0 2a 48 bd
       0.055679344 0.054022513 -0.05893994 -0.048869014
000290 dc 57 70 bd e5 f5 21 bd f1 22 1e 3d c8 82 ae bb
       -0.05867754 -0.039541144 0.03860754 -0.005325649
0002a0 3b 9e c1 3d 0a 60 07 bd 27 fd 08 3c 13 09 1f bd
       0.09454008 -0.033050574 0.0083611375 -0.038827013
0002b0 f0 2a 2d bd ad 39 b2 3d 63 79 08 3e c7 75 21 3b
       -0.042277277 0.08702407 0.13327555 0.002463685
0002c0 39 79 89 3e 03 d1 b2 3d 0b 0b ea 3d b0 5b 1c 3e
       0.26850298 0.08731272 0.114278875 0.15269351
0002d0 d3 78 ab ba e0 cb 92 bb 8b e2 b1 bc e1 08 6a 3d
       -0.0013082273 -0.00447987 -0.02171447 0.057137374
0002e0 ed 9f 47 3d 42 32 af 3d e5 d9 40 3d 4b 1d 75 3d
       0.0487365 0.08554508 0.0470828 0.05984239
0002f0 19 b8 de 3d c0 19 94 bc e4 77 d7 bc 37 7a 8e 3c
       0.108749576 -0.018078685 -0.026302285 0.017392261
000300 c0 4f 19 3c cc f1 a8 bd b3 44 a6 3d 1c e0 ad 3b
       0.009357393 -0.08249244 0.08118572 0.005306257
000310 b8 ff 22 3a b8 b4 c1 3b ed 8d f0 3b db 97 d5 bd
       0.00062179146 0.005911436 0.0073411376 -0.10429355
000320 08 c9 73 bc c5 2f 5b bd a3 a7 fb bc bf de e4 bd
       -0.014879473 -0.053512353 -0.030719584 -0.11175298
000330 55 9b bf 3d 6a b8 2c 3d 0e 31 67 3d 38 3b e7 bc
       0.09355799 0.04216806 0.056443267 -0.02822648
000340 1f 50 08 bd 0b ee a9 bc 53 5a 84 bd 34 c7 85 3d
       -0.033279534 -0.02074339 -0.064625405 0.065321356
000350 04 d3 15 3e 92 8f a8 bd 13 31 03 3e 4e 43 e3 3d
       0.14631277 -0.08230509 0.12811689 0.11096822
000360 a5 98 0e 3d b3 ae 85 3d 2e 5f c7 bc 03 38 90 bc
       0.034813542 0.06527462 -0.024337377 -0.017604833
000370 fa 92 85 3c 3b 24 ab 3d 95 d5 31 3d 76 a5 33 bc
       0.016305435 0.0835652 0.04341658 -0.010964742
000380 5c 93 57 bc 04 b2 b3 bd e9 ab e6 bc cb 2c 74 bd
       -0.013157692 -0.08774188 -0.028158145 -0.05961303
000390 4e c0 08 be f2 f3 a2 bd 5f 3c 50 3d ff 19 f6 bc
       -0.13354608 -0.07956685 0.050838824 -0.030041693
0003a0 0f 3b 22 bb 23 5c 7a bd d2 cc 02 3d 9d 1d 58 3d
       -0.002475444 -0.061123025 0.031933613 0.052762616
0003b0 f9 cf 0a 3c 6c a8 19 3c 3a 76 0d 3d c9 bd dd 3d
       0.008472436 0.009378534 0.034536578 0.10827214
0003c0 0f 11 8a bd 48 dc 89 3c 8a a2 ef 3c a1 bf ca 3d
       -0.06741535 0.016828671 0.02925231 0.098998316
0003d0 0e c3 bf 3d 83 95 c9 bc b1 53 8d 3d 31 b8 45 3d
       0.093633756 -0.024607426 0.069007285 0.04827136
0003e0 69 66 95 3e ef 0c 1e 3e f9 f6 c6 3d 77 a8 35 be
       0.29179695 0.15434621 0.09715075 -0.17740045
0003f0 f3 2f 11 bc 78 72 24 be 7a 12 cc bd 18 93 ac 3c
       -0.00886153 -0.16059291 -0.099644616 0.021066234

module.down_blocks.0.unet_block.tdt_block.transformer_blk_stack.0.positional_encoding f4 [1024, 24]
000000 00 00 00 00 00 00 80 3f 00 00 00 00 00 00 80 3f
       0.0 1.0 0.0 1.0
000010 00 00 00 00 00 00 80 3f 00 00 00 00 00 00 80 3f
       0.0 1.0 0.0 1.0
000020 00 00 00 00 00 00 80 3f 00 00 00 00 00 00 80 3f
       0.0 1.0 0.0 1.0
000030 00 00 00 00 00 00 80 3f 00 00 00 00 00 00 80 3f
       0.0 1.0 0.0 1.0
000040 00 00 00 00 00 00 80 3f 00 00 00 00 00 00 80 3f
       0.0 1.0 0.0 1.0
000050 00 00 00 00 00 00 80 3f 00 00 00 00 00 00 80 3f
       0.0 1.0 0.0 1.0
000060 1d 35 e5 3e 30 ea 64 3f 77 75 cc 3d 98 b8 7e 3f
       0.44767085 0.8941984 0.09983342 0.9950042
000070 47 7a b0 3c ca f0 7f 3f 56 18 98 3b 4b ff 7f 3f
       0.021542681 0.9997679 0.004641573 0.9999892
000080 6e 12 83 3a f8 ff 7f 3f a7 e8 61 39 00 00 80 3f
       0.0009999999 0.9999995 0.00021544342 1.0
000090 a9 ae 42 38 00 00 80 3f ac c5 27 37 00 00 80 3f
       4.641587e-05 1.0 1e-05 1.0
0000a0 eb 94 10 36 00 00 80 3f 7d 31 f9 34 00 00 80 3f
       2.1544354e-06 1.0 4.6415872e-07 1.0
0000b0 95 bf d6 33 00 00 80 3f 89 10 b9 32 00 00 80 3f
       1e-07 1.0 2.1544354e-08 1.0
0000c0 fb f4 4c 3f f8 63 19 3f f9 6f 4b 3e a5 e5 7a 3f
       0.8006131 0.59918165 0.19866933 0.9800666
0000d0 cb 6f 30 3d 2c c3 7f 3f eb 17 18 3c 2d fd 7f 3f
       0.043075364 0.99907184 0.009283046 0.9999569
0000e0 69 12 03 3b df ff 7f 3f a7 e8 e1 39 ff ff 7f 3f
       0.0019999987 0.99999803 0.00043088684 0.99999994
0000f0 a9 ae c2 38 00 00 80 3f ac c5 a7 37 00 00 80 3f
       9.283174e-05 1.0 2e-05 1.0
000100 eb 94 90 36 00 00 80 3f 7d 31 79 35 00 00 80 3f
       4.3088708e-06 1.0 9.2831743e-07 1.0
000110 95 bf 56 34 00 00 80 3f 89 10 39 33 00 00 80 3f
       2e-07 1.0 4.3088708e-08 1.0
000120 ce f0 7b 3f 16 a2 35 3e 6d 4e 97 3e ef 90 74 3f
       0.98414314 0.17737612 0.29552022 0.9553365
000130 bd 46 84 3d 29 77 7f 3f d3 22 64 3c a6 f9 7f 3f
       0.06458805 0.997912 0.013924318 0.9999031
000140 93 9b 44 3b b5 ff 7f 3f 7c 6e 29 3a fd ff 7f 3f
       0.0029999956 0.9999955 0.0006463302 0.9999998
000150 ff 02 12 39 00 00 80 3f 82 a8 fb 37 00 00 80 3f
       0.00013924761 1.0 3e-05 1.0
000160 61 df d8 36 00 00 80 3f 1e e5 ba 35 00 00 80 3f
       6.4633064e-06 1.0 1.3924762e-06 1.0
000170 b0 0f a1 34 00 00 80 3f 67 cc 8a 33 00 00 80 3f
       3e-07 1.0 6.463306e-08 1.0
000180 e7 9c 75 3f 6c 5d 90 be d8 61 c7 3e a7 ca 6b 3f
       0.9594254 -0.28196275 0.38941836 0.921061
000190 df 45 b0 3d cc 0c 7f 3f 3d 16 98 3c b4 f4 7f 3f
       0.08607077 0.996289 0.018565292 0.9998276
0001a0 58 12 83 3b 7a ff 7f 3f a5 e8 61 3a fa ff 7f 3f
       0.0039999895 0.999992 0.00086177356 0.99999964
0001b0 a9 ae 42 39 00 00 80 3f ac c5 27 38 00 00 80 3f
       0.00018566348 1.0 4e-05 1.0
0001c0 eb 94 10 37 00 00 80 3f 7d 31 f9 35 00 00 80 3f
       8.6177415e-06 1.0 1.8566349e-06 1.0
0001d0 95 bf d6 34 00 00 80 3f 89 10 b9 33 00 00 80 3f
       4e-07 1.0 8.6177415e-08 1.0
0001e0 0d 50 3b 3f c8 7f 2e bf 44 77 f5 3e 40 a9 60 3f
       0.7316902 -0.6816373 0.47942555 0.87758255
0001f0 0d 30 dc 3d 21 84 7e 3f 3a 1a be 3c 5a ee 7f 3f
       0.107513525 0.9942036 0.023205865 0.9997307
000200 dd d6 a3 3b 2e ff 7f 3f 67 31 8d 3a f6 ff 7f 3f
       0.004999979 0.9999875 0.0010772169 0.9999994
000210 53 5a 73 39 00 00 80 3f 17 b7 51 38 00 00 80 3f
       0.00023207934 1.0 5e-05 1.0
000220 26 ba 34 37 00 00 80 3f ee be 1b 36 00 00 80 3f
       1.0772177e-05 1.0 2.3207936e-06 1.0
000230 bd 37 06 35 00 00 80 3f ac 54 e7 33 00 00 80 3f
       5e-07 1.0 1.07721775e-07 1.0
000240 c6 c0 b2 3e 2d e4 6f bf 69 8c 10 3f 32 49 53 3f
       0.349127 -0.93707544 0.5646425 0.8253356
000250 09 00 04 3e 38 dd 7d 3f 29 1d e4 3c 96 e6 7f 3f
       0.12890638 0.9916568 0.027845936 0.9996122
000260 59 9b c4 3b d2 fe 7f 3f 7a 6e a9 3a f2 ff 7f 3f
       0.005999964 0.999982 0.0012926601 0.99999917
000270 ff 02 92 39 ff ff 7f 3f 82 a8 7b 38 00 00 80 3f
       0.00027849522 0.99999994 6e-05 1.0
000280 61 df 58 37 00 00 80 3f 1e e5 3a 36 00 00 80 3f
       1.2926613e-05 1.0 2.7849524e-06 1.0
000290 b0 0f 21 35 00 00 80 3f 67 cc 0a 34 00 00 80 3f
       6e-07 1.0 1.2926613e-07 1.0
0002a0 9f c6 db bd 8d 85 7e bf 73 eb 24 3f b3 cc 43 3f
       -0.10731243 -0.9942253 0.64421767 0.7648422
0002b0 5d d8 19 3e 25 18 7d 3f 6c 0f 05 3d 69 dd 7f 3f
       0.15023942 0.98864967 0.03248541 0.9994722
0002c0 c7 5f e5 3b 65 fe 7f 3f 8d ab c5 3a ed ff 7f 3f
       0.006999943 0.9999755 0.0015081033 0.99999887
0002d0 d4 58 aa 39 ff ff 7f 3f f7 cc 92 38 00 00 80 3f
       0.0003249111 0.99999994 7e-05 1.0
0002e0 9c 04 7d 37 00 00 80 3f 4d 0b 5a 36 00 00 80 3f
       1.5081048e-05 1.0 3.249111e-06 1.0
0002f0 a2 e7 3b 35 00 00 80 3f 78 ee 21 34 00 00 80 3f
       7e-07 1.0 1.5081048e-07 1.0
000300 e3 81 0a bf 62 4b 57 bf a6 a4 37 3f 5f 5b 32 3f
       -0.5410444 -0.840994 0.7173561 0.6967067
000310 69 9e 2f 3e ff 34 7c 3f 88 0f 18 3d d3 d2 7f 3f
       0.17150272 0.98518366 0.037124187 0.9993107
000320 13 12 03 3c e7 fd 7f 3f a0 e8 e1 3a e7 ff 7f 3f
       0.007999915 0.999968 0.0017235465 0.9999985
000330 a9 ae c2 39 ff ff 7f 3f ac c5 a7 38 00 00 80 3f
       0.00037132695 0.99999994 8e-05 1.0
000340 eb 94 90 37 00 00 80 3f 7d 31 79 36 00 00 80 3f
       1.7235483e-05 1.0 3.7132697e-06 1.0
000350 95 bf 56 35 00 00 80 3f 89 10 39 34 00 00 80 3f
       8e-07 1.0 1.7235483e-07 1.0
000360 f1 3b 5c bf 9f 82 02 bf 1c 88 48 3f d5 21 1f 3f
       -0.86028963 -0.5098056 0.78332686 0.62161
000370 96 4f 45 3e e2 33 7b 3f cc 0e 2b 3d d3 c6 7f 3f
       0.19268641 0.9812604 0.04176216 0.99912757
000380 3a 74 13 3c 59 fd 7f 3f b2 25 fe 3a e1 ff 7f 3f
       0.008999879 0.9999595 0.0019389896 0.99999815
000390 7e 04 db 39 ff ff 7f 3f 62 be bc 38 00 00 80 3f
       0.00041774282 0.99999994 9e-05 1.0
0003a0 89 a7 a2 37 00 00 80 3f d6 2b 8c 36 00 00 80 3f
       1.938992e-05 1.0 4.1774283e-06 1.0
0003b0 87 97 71 35 00 00 80 3f 9b 32 50 34 00 00 80 3f
       9e-07 1.0 1.938992e-07 1.0
0003c0 d0 5b 7f bf bd e0 90 bd a4 6a 57 3f 41 51 0a 3f
       -0.9974947 -0.070741154 0.84147096 0.54030234
0003d0 52 e9 5a 3e eb 14 7a 3f 1f 0d 3e 3d 6a b9 7f 3f
       0.21378067 0.9768817 0.046399232 0.99892294
0003e0 57 d6 23 3c b9 fc 7f 3f 62 31 0d 3b d9 ff 7f 3f
       0.009999833 0.99995 0.0021544327 0.9999977
0003f0 52 5a f3 39 fe ff 7f 3f 17 b7 d1 38 00 00 80 3f
       0.00046415866 0.9999999 1e-04 1.0

module.down_blocks.0.unet_block.tdt_block.transformer_blk_stack.0.layer_norm.weight f4 [24]
000000 ce 06 f6 3e 9a 2b cd 3e 1f c9 24 3f 30 8a 10 3f
       0.48052067 0.40072328 0.64369386 0.5646086
000010 ed 03 f7 3e c8 80 e5 3e bd 76 6b 3f 5e b3 66 3f
       0.48245183 0.44824815 0.91978055 0.9011744
000020 64 77 37 3f 1d db 5c 3f 19 54 0b 3f 05 c9 17 3f
       0.7166655 0.8627184 0.544252 0.59291106
000030 d9 a9 39 3f 47 6a 03 3f 7d 33 0a 3f 2e 6c 58 3f
       0.7252479 0.5133404 0.53984815 0.8454007
000040 30 92 35 3f 3b 21 29 3f 84 b1 c2 3e df 04 7c 3f
       0.7092619 0.6606633 0.3802606 0.9844493
000050 69 94 7c 3f d4 92 3d 3f c6 fa 0c 3f 6c 83 11 3f
       0.98663956 0.74052167 0.5507015 0.5684116

module.down_blocks.0.unet_block.tdt_block.transformer_blk_stack.0.layer_norm.bias f4 [24]
000000 6a 42 95 bd 97 7c 83 3d 49 54 75 3d 95 d4 0d be
       -0.07288058 0.06420248 0.059894834 -0.13850625
000010 67 12 9c bc 9b d9 c9 3d 51 be 8a bc 0c 9b 16 3c
       -0.019051744 0.09855958 -0.016936453 0.0091922395
000020 7f f4 b9 bd 0b fd cc bb fd f1 62 bd fe 6d 3a bd
       -0.09079837 -0.006255751 -0.05540656 -0.045515053
000030 44 3f 98 bd 49 63 99 bd 43 68 1e 3e 75 bf 46 be
       -0.07433942 -0.0748964 0.1546946 -0.19408973
000040 56 2a 04 3e b4 0b 5b bd db 63 8f 3d ee 92 ed bd
       0.12906775 -0.053477958 0.07001468 -0.1160029
000050 c7 88 0c 3d 58 a9 cd bc 6c dd 33 3c 50 1a 7e bd
       0.03431013 -0.025105163 0.010978084 -0.062036812

module.down_blocks.0.unet_block.tdt_block.transformer_blk_stack.0.attention.query.weight f4 [24, 24]
000000 7b 63 da 3d 6b de 08 3d 4b eb 60 be 89 f5 bb bd
       0.10663506 0.03341524 -0.21964757 -0.091776915
000010 f7 a4 24 3d ce 9d b0 bb e7 fb ed bd 04 cc cb 3d
       0.040196385 -0.0053899055 -0.11620312 0.09951022
000020 a3 cf a4 bd e8 99 07 bd 4d 8b 4d be 38 fe cc 3c
       -0.08047416 -0.03310576 -0.2007267 0.025023565
000030 74 cc 5e bd 4b cb a9 bb 9d 78 c7 bd 25 67 c0 3c
       -0.0543942 -0.005181705 -0.09739802 0.023486683
000040 d3 fa 70 be 89 9b 28 3e 22 79 66 3d 5e d0 d2 bc
       -0.23533182 0.16465582 0.056267865 -0.025734123
000050 4a 8a 0a 3d fd 64 56 3d 0a 7d 4b bd f0 10 5c 3c
       0.03382329 0.052342404 -0.049679793 0.013431773
000060 32 bf 17 3e 09 ca 94 3d 9c d6 6d be 99 ca 88 bd
       0.14819029 0.07265098 -0.23226398 -0.066792674
000070 6d 5e 94 3d 81 d5 1d 3e f4 56 68 bd 5a 88 99 3e
       0.07244573 0.15413477 -0.05672355 0.2998684
000080 80 b7 f9 bd 79 54 7f 3d 4f 62 b0 bd c5 c7 cc bc
       -0.12193203 0.06233642 -0.08612501 -0.024997601
000090 e1 0d 3a 3d ae 97 5d 3e 9b 0e 0b 3e 8f d3 0a 3e
       0.045423392 0.21639892 0.1357979 0.13557266
0000a0 9d 41 e5 bc 6d b7 6a 3e 0b 3d 8a 3e bb 76 cb bc
       -0.027985388 0.22921534 0.26999697 -0.024836889
0000b0 53 82 1d 3e 2b f7 5e 3e 2b 18 cd bd b4 78 02 3e
       0.15381746 0.21773975 -0.10014375 0.12741357
0000c0 2e b3 59 bd 16 c4 23 3e 69 37 0e 3e b2 ac 78 3e
       -0.053149395 0.1599277 0.13888325 0.24284628
0000d0 4c d6 92 3d 7d bd 1e be e0 88 f7 3d 48 13 47 bd
       0.0716978 -0.15501972 0.12086654 -0.048602372
0000e0 52 f6 4c bd a0 3e a7 3d 24 30 0e 3e ae 48 dc bd
       -0.050039597 0.08166242 0.13885552 -0.1075605
0000f0 12 84 96 bd 05 96 00 be f8 62 28 ba 90 27 8b 3d
       -0.07349409 -0.12557228 -0.0006423439 0.06794655
000100 2c 7e 6c 3e 36 ac a0 3c 04 4a 1f 3e 9d 82 84 bd
       0.23095006 0.019613367 0.15555578 -0.06470225
000110 4a c4 6f bd 30 05 55 3d ef ee 48 bd d4 09 44 3e
       -0.058536805 0.0520069 -0.04905599 0.19144374
000120 e9 15 15 3c ec b9 72 3c 37 ae ae 3d e1 6e 12 bc
       0.009099462 0.014814835 0.085293226 -0.008937568
000130 52 f2 85 3d 64 45 ad 3c 3a b8 8e bd 06 41 55 3e
       0.065403596 0.021151252 -0.06968732 0.20825586
000140 d1 02 6b 3d 30 c1 25 3e 63 6d 2a 3d eb 8b 08 be
       0.057375733 0.16186976 0.041608226 -0.13334624
000150 98 6e 68 bd b6 2f 31 3e 6c 9a 59 be d1 ae cf 3d
       -0.056746095 0.17303357 -0.21250314 0.101407655
000160 f7 23 d0 3d 32 6c a4 bd 7a 88 1e 3d f4 e8 fb 3d
       0.1016311 -0.08028449 0.038704373 0.12300292
000170 85 c1 fc 3d f5 ff 69 bd d9 70 3b 3d 46 54 08 be
       0.123415984 -0.057128865 0.045761917 -0.13313398
000180 08 57 c5 3d 64 55 86 3e b0 67 ee bc d8 9a 26 3d
       0.096357405 0.26237023 -0.029102176 0.040675014
000190 65 c3 b4 bd bb fb 2e 3d 5d 54 78 3d a6 c3 4c 3d
       -0.08826331 0.042720538 0.06062733 0.049991272
0001a0 a1 d6 0b 3e b9 55 c3 3d 6f 2b b8 3d 1c 86 48 3e
       0.13656093 0.09537835 0.08992659 0.19582409
0001b0 4d b7 c9 3d 5d 87 1b 3e 2e 85 ed 3d 0e 2f a0 bd
       0.09849415 0.15188356 0.11597668 -0.07821475
0001c0 6a 5b 2c 3e 2d 93 4c 3e 63 9a 01 bc 70 3a a8 3d
       0.16831747 0.19978018 -0.007910344 0.08214271
0001d0 85 25 51 3e 7b 08 7d 3d 94 57 0a 3d 9e 96 07 3e
       0.20424469 0.061775666 0.033774927 0.1324105
0001e0 5d 19 65 be 9d 97 f1 3d 8b fb 13 3e 7e 8e 14 3d
       -0.22372957 0.11796496 0.14451425 0.036268704
0001f0 bf 3b 7c bd bd b1 a8 bd e2 8c 35 3e 3a 18 ad bd
       -0.061580416 -0.08237026 0.17729524 -0.084518865
000200 a1 19 13 bd f3 55 10 be a7 f4 0f 3e c4 88 8e 3c
       -0.035913114 -0.14095287 0.14058171 0.0173992
000210 c0 cc 6e 3c 7d 4d a5 bd 1f 43 aa bd d1 80 61 3d
       0.014575183 -0.0807142 -0.083135836 0.05505449
000220 17 bc b6 3d ef 33 eb bd d0 78 07 be 31 e5 6a 3d
       0.08922594 -0.11484515 -0.1322968 0.05734748
000230 9b ec 3d be 40 1f 12 3d 92 db 93 bc 95 22 c4 bb
       -0.18547289 0.035674334 -0.018049035 -0.005985568
000240 a8 b3 d5 bd 50 05 3d bd 76 73 8f bd 8d aa 69 be
       -0.10434657 -0.046147645 -0.07004444 -0.22818966
000250 48 34 eb 3c e7 a6 03 3d b3 43 93 ba 00 b7 ea 3e
       0.028711453 0.032141592 -0.0011235386 0.45842743
000260 7c 20 1b be 83 10 c3 3d 57 e5 d3 bd fe d6 c1 3d
       -0.1514911 0.09524634 -0.103464775 0.09464835
000270 08 33 6f bc 88 8c 4c 3e 69 c9 8a bd 66 2e 53 3e
       -0.014599569 0.19975483 -0.06776697 0.20623168
000280 72 2d a1 3c 66 6b 4c 3e 06 17 f9 3d 1d 2b ef bd
       0.01967499 0.19962844 0.121625945 -0.11678145
000290 b2 ff 26 3c 56 4a 0c be 81 7a 2d bd 12 5f d4 bd
       0.010192798 -0.13700232 -0.042353157 -0.10369696
0002a0 ed 8a 65 be 6b 06 32 bc a2 d2 9e 3e 1f b0 8e 3d
       -0.22416277 -0.010865788 0.31020075 0.06967186
0002b0 7c 18 ea bc 86 9c 0e be 0c ac ee 3d d4 1b e6 be
       -0.028576128 -0.13926896 0.11653909 -0.44943106
0002c0 0b 58 ae 3b b6 a1 29 3c 68 33 8b 3d da ec 66 be
       0.005320554 0.010353496 0.06796914 -0.22551289
0002d0 9f 46 22 3d 78 e4 62 be 97 ce 65 be 67 73 63 bd
       0.03961813 -0.22157466 -0.22442089 -0.055529978
0002e0 fb 14 45 bd 68 10 51 be 5f 61 6f be 5c 8e 30 bd
       -0.04811571 -0.20416415 -0.23376988 -0.043104514
0002f0 94 1b 92 be 0c 56 94 bc c9 55 91 bc d7 85 51 ba
       -0.28536665 -0.018107437 -0.0177411 -0.0007992661
000300 9c b2 87 3d 97 b2 f2 3d 90 a0 ca bd 4e 3d 73 bd
       0.06625864 0.118504696 -0.09893906 -0.059384637
000310 db fc 64 bb f4 54 59 be 4f 2f 09 be c2 3f 51 3e
       -0.0034940753 -0.21223813 -0.13396953 0.20434478
000320 b1 35 32 bd c4 a3 61 3e c8 30 c1 3d bc d4 1e bd
       -0.043508235 0.22035128 0.094331324 -0.038777098
000330 cd 7e 4f bd d3 36 08 3e 1e 33 83 bd d7 63 0d 3e
       -0.050658036 0.13302164 -0.06406234 0.13807617
000340 41 5f 5b bd bd ae 94 3d 4b fb 08 bd 9a b4 7f 3c
       -0.053557638 0.07259891 -0.033442777 0.015607024
000350 07 51 88 3d a1 54 16 be b7 6c 86 bd 2b 96 33 3e
       0.0665608 -0.14680721 -0.065637045 0.17537753
000360 88 55 92 3c 14 7a 0c 3e 81 28 2f 3e 75 b8 0e 3e
       0.01786305 0.13718444 0.17105295 0.13937552
000370 47 2e dc bd c6 48 b4 3d 91 0a e4 3d 10 85 3c 3e
       -0.10751014 0.08802943 0.11134828 0.18410134
000380 f1 5a 0f 3e 4e fb 73 3e a5 f7 b3 3d b2 94 c6 3d
       0.13999535 0.23826334 0.08787469 0.0969633
000390 3e 1f 31 3d 0c 5c ab 3c c7 9d 0d 3e 02 58 02 be
       0.043242685 0.020917915 0.13829719 -0.12728885
0003a0 0e c9 7b 3e 33 bb 67 bd 70 d2 ad 3d 64 29 4a 3d
       0.24588415 -0.05657501 0.084874034 0.04935588
0003b0 c4 29 4b 3d ab 6d 87 3d cc d8 19 bc e5 5f 58 3e
       0.049600378 0.066127144 -0.009390067 0.21130331
0003c0 7f 79 cb bd 30 47 82 bc a1 f7 d1 3b bc b9 98 bd
       -0.09935283 -0.015903085 0.0064076935 -0.07457301
0003d0 c9 a7 64 3d d8 a6 8a bd b8 f6 00 bb 6d 19 96 bd
       0.055824075 -0.06770104 -0.0019678306 -0.07329068
0003e0 a6 d4 76 3d 4d 9c 73 3d 53 e5 8e bd 77 b0 44 bd
       0.06026139 0.059475232 -0.06977334 -0.048019852
0003f0 68 6b 3e bc b5 58 9b 3d 22 43 f4 39 38 8f 49 3d
       -0.011622287 0.07585279 0.00046589324 0.04920885

module.down_blocks.0.unet_block.tdt_block.transformer_blk_stack.0.attention.query.bias f4 [24]
000000 19 d2 8b 3d 70 e9 dc bd df 4c ca 3d 43 3d 40 3e
       0.06827182 -0.10786712 0.09877943 0.1877337
000010 3b 2f 97 bd 64 70 26 be 91 fe d6 3d 5c b4 e2 bd
       -0.07382055 -0.16253811 0.104977734 -0.11069557
000020 d2 e1 fb 3d 1e c2 60 bd fa 9d 9f 3d d3 99 e4 bd
       0.12298931 -0.054872625 0.077938035 -0.11162152
000030 4e 47 16 be 93 ea 1c bd 59 5c e0 bd a9 04 bf bd
       -0.14675638 -0.038309645 -0.10955114 -0.09327061
000040 f5 68 d4 3d c4 41 96 3c 6d e6 2b bd 74 88 60 be
       0.103715815 0.018341906 -0.041967798 -0.21927053
000050 20 71 cd bc e1 2e 28 bd fd e3 32 3d fd 63 19 be
       -0.025078356 -0.041060332 0.043674458 -0.14979549

module.down_blocks.0.unet_block.tdt_block.transformer_blk_stack.0.attention.key.weight f4 [24, 24]
000000 3f 07 0e 3d 44 03 f6 3d a7 a7 29 be 16 70 98 be
       0.03467488 0.120123416 -0.1656786 -0.29773015
000010 d2 6c 63 3e 6b 48 99 bd 87 ec c4 bc 75 f1 63 3d
       0.2220948 -0.07484516 -0.024038566 0.055650193
000020 84 87 76 bc 9d f0 ff bc f8 2c fa bc 85 77 8b bd
       -0.015046958 -0.031242663 -0.03053902 -0.06809906
000030 57 41 f0 bc ec 45 16 bd 51 d8 fc bc de 5b 88 3d
       -0.029328031 -0.036687776 -0.030864866 0.06658147
000040 ea a7 07 3b 4a c4 63 bd b8 3a e2 3c c7 74 82 bd
       0.002069945 -0.055607118 0.02761589 -0.0636993
000050 8f b9 20 bd cd 38 c0 3c d7 e0 6f bc 6f 7c ad bd
       -0.039239462 0.023464585 -0.014641008 -0.084709994
000060 05 ef 3a be eb 02 e1 bd 53 19 01 3d 02 5c fb bd
       -0.18255241 -0.10986885 0.03151829 -0.122734085
000070 2b 73 8e bb 0d a8 19 be f3 3f 7e bd 62 93 1c 3e
       -0.004347225 -0.15005513 -0.062072705 0.15290597
000080 6d 52 9a be 96 73 58 3d e2 d5 c3 bd 39 bd 4d be
       -0.3014101 0.052844606 -0.09562279 -0.20091714
000090 76 3f 97 3d ab 62 65 be b6 bf 5d be 67 04 80 bd
       0.07385151 -0.2240092 -0.21655163 -0.0625084
0000a0 84 78 35 be d4 ec fb bd aa b1 71 be 28 2c ab bd
       -0.17721754 -0.12301031 -0.2360293 -0.083580315
0000b0 68 aa 11 bd 8b 08 80 be 1f 9a 8a be 67 f3 da bd
       -0.035562903 -0.25006518 -0.2707071 -0.106909566
0000c0 4e 7a ba bd f9 59 1c 3d 7c b8 7f 3d 43 65 49 3e
       -0.09105359 0.038171742 0.062431797 0.19667535
0000d0 16 e9 92 be 6a dc c8 3b 0d 40 5d bc e5 b0 2e 3d
       -0.28693455 0.006129791 -0.01350404 0.04264917
0000e0 a2 83 0a be f0 63 fb 3d 05 76 e9 bd f3 bb 1a 3e
       -0.13526776 0.12274921 -0.113994636 0.1511076
0000f0 57 a0 8c bd 07 59 77 3d 60 7e 20 3e d6 40 32 39
       -0.0686652 0.060387637 0.15673208 0.00016999556
000100 a2 08 e5 bd c8 31 33 bd af 1d 1a be 4c c5 c9 3c
       -0.11183287 -0.043748647 -0.15050386 0.024630211
000110 54 b6 35 3c 33 b3 5e 3d 0c 40 e0 bd 34 85 1a be
       0.011090834 0.054370116 -0.10949716 -0.15089875
000120 13 6b 99 bd 81 4d 82 3d 81 8b 26 be 1f 66 a7 3d
       -0.07491126 0.06362439 -0.16264154 0.08173775
000130 27 e3 91 bd a8 29 2f bd 47 c8 0f 3d 90 b2 7f 3d
       -0.07123404 -0.042764336 0.03510311 0.06242615
000140 7b e7 05 be fd 9f a1 bc 40 47 79 3c 87 77 ba bd
       -0.13076584 -0.019729609 0.015214741 -0.09104829
000150 fa 20 24 3d d5 73 e6 bd cf fe 1c be 40 02 eb bd
       0.04007051 -0.11252562 -0.15331577 -0.114750385
000160 81 56 2a be 22 b0 27 bb f1 5a 92 3c 7b d3 34 bd
       -0.16634561 -0.002558716 0.01786563 -0.044146996
000170 7a 65 b4 bd 01 2f 40 be 5b f5 4b be 9a c9 12 3c
       -0.088084176 -0.1876793 -0.19917814 0.008959198
000180 1b d2 29 be e4 38 cf bd 52 83 af bd d8 9f a3 3d
       -0.16584055 -0.10118273 -0.08569969 0.07989472
000190 56 29 e6 bd f3 d7 27 be c2 27 b5 3d 5e 23 73 3e
       -0.11238353 -0.16390972 0.08845474 0.2374396
0001a0 da a2 a6 bd b7 2d 22 3e 90 97 1e bd 30 ba e8 3b
       -0.0813653 0.15837751 -0.03871876 0.0071022734
0001b0 e0 b7 e4 bd 9d 22 1e bc 75 32 3f bd 7d 90 bc bc
       -0.11167884 -0.009651807 -0.04667898 -0.023018116
0001c0 21 db f9 bd 72 d4 c8 bd 7f 8b 13 be cd cb 1c bd
       -0.12199999 -0.09806146 -0.14408682 -0.038280297
0001d0 e0 5c b0 bd 7a cc df bd c5 8f 2a be f6 c2 3d be
       -0.086114645 -0.10927673 -0.16656406 -0.18531403
0001e0 ce 1d 3c 3e 24 81 96 3b eb 6f 74 bb ce ed 8c 3d
       0.18370745 0.0045930315 -0.0037298154 0.06881295
0001f0 a4 f3 3e be 7f 86 ea 3d 33 d9 a9 3d d7 19 74 bd
       -0.18647629 0.11451434 0.082933806 -0.059594955
000200 f1 45 46 3d a4 05 9c bd 43 f7 50 3c f0 75 a0 3d
       0.048406545 -0.07618263 0.012754264 0.07834995
000210 08 5e c2 bd a8 18 51 3d 61 0e 2b 3e a5 77 0e 3e
       -0.09490591 0.051048905 0.16704704 0.13912828
000220 f4 a1 ce bd 32 fb 89 bc 3c 7e 53 bc 34 24 b9 3d
       -0.10089484 -0.016843412 -0.012908515 0.09040108
000230 d6 7d cb bc f5 4e 2e bd a7 2c d7 3d 44 f4 c3 bd
       -0.024840277 -0.042555768 0.10506564 -0.09568074
000240 3a 59 d8 bd 59 22 36 3d b7 d5 d6 bd 56 19 65 bd
       -0.105638936 0.04446635 -0.104899816 -0.055932365
000250 30 56 f4 bd ed c1 09 3d 23 d7 0c be 74 bd 1c 3e
       -0.119305015 0.033632208 -0.13753943 0.15306646
000260 d9 60 e4 bd 36 ad e0 bd 92 7c 21 be 25 da b7 bd
       -0.11151285 -0.10970537 -0.15770176 -0.08977155
000270 f8 41 61 bd a7 4e 42 be fb 33 11 be 06 37 ee bd
       -0.054994553 -0.18975316 -0.14179985 -0.11631589
000280 14 75 40 be e5 a6 62 be 06 cb 0a be ed f9 b4 bd
       -0.18794662 -0.22133978 -0.1355401 -0.08836732
000290 78 34 6b be 03 c7 62 be 9f 13 0a be d6 a5 4c be
       -0.22969234 -0.2214623 -0.13484047 -0.19985136
0002a0 ba 8f 3a 3e 2e 9a 2f 3d 9b 8b 46 bd 67 38 6e bd
       0.1821889 0.042871647 -0.048472982 -0.05815926
0002b0 a4 a6 25 be 3b 27 2e 3e d8 02 53 3e d9 2b 6f be
       -0.1617685 0.17007153 0.20606554 -0.2335657
0002c0 42 29 cd 3d e8 46 17 3d af 3e 80 3e 85 91 53 3e
       0.10017635 0.036932856 0.25047824 0.2066098
0002d0 ac d3 26 3d 08 04 24 3e 06 02 a2 3d 45 a0 56 3c
       0.04072921 0.16017163 0.07910542 0.013099735
0002e0 97 50 48 bd 20 23 43 3d 75 5e 2e 3e 67 12 f7 3d
       -0.04890498 0.04764092 0.1702822 0.12064057
0002f0 fa b2 33 3e eb 5f 22 3e e4 be 83 3e ab 40 a2 3d
       0.17548743 0.15856902 0.25731575 0.07922491
000300 54 6b fb 3d 71 de b3 bc be 20 a5 bd 68 a7 d6 bc
       0.122763306 -0.021956654 -0.08062886 -0.026202872
000310 c3 4e 02 be ce e4 34 be bd c6 91 bd 2b e0 32 3e
       -0.12725358 -0.17665407 -0.071179844 0.17468326
000320 90 ed ce bd 64 fc dc 3c db 49 10 be e6 3b 31 be
       -0.10103905 0.026975818 -0.14090674 -0.17308006
000330 3d 15 07 be f8 fd 37 bd 06 3c 99 bd 2b 2c 9c bd
       -0.13191696 -0.044919938 -0.07482152 -0.07625612
000340 c1 d2 62 be 77 08 1a be a4 fa 1e be 1b dd f8 bc
       -0.22150709 -0.15042292 -0.155253 -0.030378869
000350 95 f9 23 be 91 bf 9a 3d 9a 23 8b be 90 f9 f8 bb
       -0.16013177 0.0755607 -0.271756 -0.0075981095
000360 32 41 2c bc cf 2c f0 3c aa da fc ba 46 ef b9 3d
       -0.010513591 0.029318241 -0.0019291241 0.09078841
000370 8b 4d 4f be 1b 5c 45 be 43 08 74 3d 6b f9 87 3e
       -0.20244424 -0.19273417 0.05957819 0.26557478
000380 2d ab a3 bd 2f 2a 49 bd d9 39 b3 bc 5d 41 d8 bc
       -0.079916336 -0.049112495 -0.02187817 -0.026398355
000390 59 f0 c8 bd 4d f2 5c be 22 bb d5 3d 8c 9c d3 bd
       -0.09811468 -0.21576805 0.104360834 -0.10332593
0003a0 25 5e 43 bd 30 f2 06 be f7 c7 05 bc 8a a0 41 bc
       -0.047697205 -0.13178325 -0.008165351 -0.011818061
0003b0 de 8f 0e bd bb d9 33 3d b1 f3 ea 3c 93 be b6 3d
       -0.03480517 0.043908816 0.028680654 0.08923068
0003c0 0c be 5a bc 00 ae 8d bd 11 3a 55 bd e1 e9 a4 3d
       -0.013350975 -0.069179535 -0.05205733 0.08052421
0003d0 fe 7e 39 3d 36 e4 e5 3c a7 35 a8 3d 2a 47 fd bc
       0.045287125 0.028062921 0.08213358 -0.030917723
0003e0 ba ff e4 3d 76 37 26 3d 94 fb 8a bd 1a 86 d0 bc
       0.111815885 0.040580235 -0.06786266 -0.02545457
0003f0 b6 87 18 be e1 e1 65 bd 05 37 54 bd dd 69 c9 bc
       -0.1489552 -0.056123618 -0.051810283 -0.024586612

module.down_blocks.0.unet_block.tdt_block.transformer_blk_stack.0.attention.key.bias f4 [24]
000000 6d ca bc 35 13 0c f8 36 25 95 22 36 dd 19 0e b5
       1.4066005e-06 7.3923816e-06 2.4226695e-06 -5.293676e-07
000010 90 c0 94 b6 0d 0b e7 36 ea c8 78 b5 90 cc 9e b7
       -4.433161e-06 6.885623e-06 -9.267957e-07 -1.8930325e-05
000020 69 a1 58 37 36 d7 a6 b5 21 a0 25 b6 39 2e 6a b6
       1.29121845e-05 -1.2430598e-06 -2.4680123e-06 -3.4895622e-06
000030 76 57 bb 37 05 81 3f b6 d7 23 ae 36 1c 8e a0 b5
       2.2332864e-05 -2.8536317e-06 5.1897764e-06 -1.1962288e-06
000040 5c 58 af b5 b6 7d 0e 36 68 39 03 b7 4d c4 1f b8
       -1.3064232e-06 2.1232822e-06 -7.821574e-06 -3.8091373e-05
000050 81 06 7e b7 9d a8 2f 37 0d fe 68 36 35 a3 30 b6
       -1.5141094e-05 1.0470071e-05 3.471857e-06 -2.6321043e-06

module.down_blocks.0.unet_block.tdt_block.transformer_blk_stack.0.attention.value.weight f4 [24, 24]
000000 cf 00 c8 bc 43 bd bc 3d 8e 0c e5 3d ce af 18 3e
       -0.024414448 0.09215786 0.11184035 0.14910814
000010 f7 72 8c bd d2 75 e7 bd d4 d6 19 3d 6f 34 85 be
       -0.06857865 -0.11301769 0.03755839 -0.26016566
000020 12 5f 29 3e 13 44 96 3d 73 01 5d 3e 47 df 8d 3e
       0.16540173 0.07337203 0.21582584 0.2770941
000030 bb 1e ca 3c 5c 8c 7c 3e cc 4e fd 3d 8b e3 36 3e
       0.024672857 0.24662918 0.12368545 0.17860238
000040 2c 93 cd 3d 59 45 82 3d 84 a0 1e 3e 75 34 35 3e
       0.100378364 0.06360883 0.1549092 0.17695792
000050 77 35 1b 3e 6f fc c0 3d 3d 1e dc 3d 79 03 d3 3d
       0.15157114 0.09423148 0.10747955 0.10303397
000060 aa 1d 0f 3e 5b e0 9b bd 56 1a 97 bd 15 bd d9 3d
       0.1397616 -0.07611152 -0.0737807 0.10631768
000070 09 e8 a3 bd 3a 8e 83 bd 21 a2 bd be c5 9a b2 be
       -0.080032416 -0.06423612 -0.37037757 -0.34883705
000080 cb 7d 6d 3c a6 11 6b be 7e 5f 6f 3d ac 48 55 be
       0.014495323 -0.22955951 0.058440678 -0.20828503
000090 54 5f 2f bd 96 f1 8b be e9 e5 17 bd 13 8b 46 be
       -0.04281552 -0.27332753 -0.037084494 -0.1938899
0000a0 c0 68 7c 3d 9d 71 46 be 39 a9 45 3d 24 5f 78 be
       0.061623335 -0.19379278 0.048257086 -0.24255043
0000b0 5a 64 24 3d 5d ed 29 be e4 97 97 bc e7 f8 54 bd
       0.040134765 -0.16594453 -0.018505044 -0.051995184
0000c0 f3 67 71 3e 9f 1e 45 be 23 ca 07 be 96 bf a0 bc
       0.2357481 -0.19249962 -0.13260703 -0.019622605
0000d0 7f ed d3 bd 34 12 8c 3d 9b e7 79 be 49 60 95 bd
       -0.10348033 0.068394095 -0.24404757 -0.072937556
0000e0 35 46 35 be 23 f3 81 be 0a 9f 80 be 3e 09 d6 be
       -0.17702563 -0.2538081 -0.25121337 -0.41803926
0000f0 e8 85 49 bd 84 00 09 bf 3a 2c ea bd b5 58 b5 be
       -0.04919997 -0.5351641 -0.11434217 -0.3541924
000100 9e ae 0b be ae e7 b0 be 79 91 04 bd f9 69 92 be
       -0.1364083 -0.34551758 -0.032365296 -0.28596476
000110 46 9a 07 be 0a 19 80 be 9b c8 9e bd 87 be 99 be
       -0.13242444 -0.25019103 -0.07753106 -0.30028173
000120 cb 85 32 be 26 1d 3d 3e ef 3d 00 3e f3 ce 12 3e
       -0.1743385 0.1846815 0.12523626 0.14336757
000130 3f 06 62 3e 0e 75 be be 17 5f ad 3e c2 84 82 bc
       0.22072695 -0.3719868 0.3386161 -0.015932444
000140 12 9b 00 3f da 3e f4 3e 93 8f 9a 3e ec e0 03 3f
       0.5023662 0.47704202 0.30187663 0.5151508
000150 96 46 20 3e 33 e9 17 3f b2 ec f9 3d fb fe de 3e
       0.15651926 0.5934021 0.12203349 0.4355391
000160 de 5d 34 3e df bb 02 3f 67 14 f9 3d 5a d4 da 3e
       0.17613932 0.5106792 0.121620946 0.42740136
000170 08 3b 42 3e e8 e1 04 3f a1 4b 10 3e 75 24 02 3f
       0.18967831 0.51907206 0.1409135 0.5083688
000180 db 7c 22 bd bf e7 73 bd fe c7 4e bd 30 1d d3 3c
       -0.039669853 -0.059547182 -0.050483696 0.025770754
000190 62 48 f6 3d be 9c 3f be 67 36 50 be fd 3e fb bb
       0.12025525 -0.18712136 -0.20333253 -0.007667421
0001a0 06 da 2b 3d 55 fd 0b bd ca bb 01 3d 3d 73 bd bb
       0.04195597 -0.034177143 0.03167323 -0.0057815597
0001b0 f8 43 8d 3d 13 2d 22 be d0 46 c1 3c c7 0f 17 3e
       0.0689773 -0.15837507 0.023593336 0.14752112
0001c0 c8 95 20 3e 95 74 1e be d5 70 74 3d cc e2 65 39
       0.15682137 -0.1547416 0.059677918 0.0002192363
0001d0 c0 08 26 3e 76 ba f1 bc 40 94 e7 3c 1f 77 d7 bd
       0.16214275 -0.029507857 0.028268933 -0.105207674
0001e0 41 55 15 3e 37 69 2e be 11 ee 89 bd 29 90 13 3e
       0.14583303 -0.17032324 -0.06734861 0.14410461
0001f0 8e f8 c7 bd c6 72 10 be ac 3a 09 bf 67 1a 8d be
       -0.09764205 -0.14106283 -0.5360515 -0.27559206
000200 18 62 61 3d df ae de be 70 5a 0f be e0 3f bd be
       0.05502519 -0.4349279 -0.13999343 -0.36962795
000210 03 3a 32 bd 1b 11 2b be 13 bc 05 bd 11 29 89 be
       -0.043512356 -0.16705744 -0.032650065 -0.26789144
000220 8c 13 9a bd a0 56 9e be 14 6b 67 bc b8 45 13 be
       -0.075232595 -0.30925465 -0.0141246505 -0.14382064
000230 3a 48 9a bc a9 9c e2 be 3c 84 9a bc aa 0f a6 be
       -0.018833268 -0.44260147 -0.018861882 -0.32433826
000240 1e c5 0f bc 79 d8 d0 3d 9f 09 b6 3c c8 cc 45 3e
       -0.008775024 0.10197539 0.022221385 0.19316399
000250 90 31 98 bc 4a 81 28 be c1 0a a1 3d 7c f4 46 3e
       -0.01857832 -0.1645557 0.07863379 0.19429201
000260 dd 21 d4 bd d1 15 28 3e b3 16 bd bb e9 64 c3 bc
       -0.103580214 0.16414572 -0.005770528 -0.023851829
000270 51 9b a9 bd 1a 0a 66 bd e9 e4 20 3d ce f8 c6 bd
       -0.082815774 -0.056161977 0.039280806 -0.097154245
000280 58 55 fc bd aa f2 2c 3e a4 8e 9b bd 94 de 33 3e
       -0.123209655 0.16889444 -0.07595566 0.17565376
000290 6e d0 4f 3c 3a 1b f0 3d 6d 80 6e 3d b7 0d dd bc
       0.012683971 0.11723943 0.058227945 -0.026984079
0002a0 57 e9 f1 3d 41 9f 02 3e b1 c7 82 3b 83 7e ff bb
       0.11812084 0.12756063 0.00399109 -0.007797064
0002b0 5b 40 2b be 1a 2b 37 be a1 b3 90 be 0b 4f a0 be
       -0.16723768 -0.17887536 -0.28262046 -0.31310305
0002c0 ac 1e fa 3d cd 3d d1 bd ca 80 bc 3d c4 b8 4e be
       0.122128814 -0.10216866 0.09204252 -0.2018767
0002d0 a0 77 b8 3c 48 0e 85 be e7 10 ae 3d 4e a0 6e be
       0.02251798 -0.25987458 0.084993176 -0.23303339
0002e0 74 7b 78 3d 78 11 30 be d0 7c 0d bd 18 d5 90 be
       0.06066461 -0.17194164 -0.03454286 -0.28287578
0002f0 d5 39 5f 3d 48 e3 64 be a7 e2 10 3e 8f dd 0c be
       0.054498512 -0.22352326 0.14148961 -0.13756393
000300 dc 5a 67 be c9 c1 26 3c 34 7a d1 3c 0a c9 cb 3d
       -0.22593254 0.010178038 0.025570966 0.099504545
000310 4f 32 8a 3e 35 fd c7 be b8 3d cf be d9 e3 27 be
       0.26991507 -0.3906037 -0.40476775 -0.1639551
000320 6a d5 08 3f 09 93 88 bc b8 af 9f 3e 63 0b bd 3e
       0.53450644 -0.016671674 0.3118875 0.3692275
000330 6b d5 c9 3d 88 8a b0 3d 17 3a a7 3d 1d 8b a2 3e
       0.09855159 0.08620173 0.08165377 0.3174676
000340 59 21 65 3e e6 3a 9a 3d 3e 24 78 3d 05 25 ef 3d
       0.22376002 0.07530765 0.06058144 0.11676983
000350 32 2f 25 3e 2f 44 a3 3e 6d 84 67 3d 15 6d 97 3e
       0.16131285 0.31887957 0.056522775 0.2957541
000360 84 16 27 be 43 26 6c 3d 9d 6e db 3d a5 17 01 bc
       -0.16317183 0.057653677 0.10714457 -0.007879172
000370 00 37 ce bd 6a e0 e8 3d ca 76 5d 3e 09 55 fd 3e
       -0.10069084 0.113709286 0.21627346 0.4947894
000380 50 d5 cb be ad 90 20 be bd f0 f4 bd 2a ac 80 bd
       -0.39811182 -0.1568019 -0.1195998 -0.06282838
000390 53 03 b9 bd c2 79 9e bd 75 2b d3 bd 7e f7 93 3d
       -0.09033837 -0.07738067 -0.10311023 0.0722494
0003a0 3e 67 12 be 15 8b 2c be 1c 92 16 be e3 db 46 3d
       -0.14297196 -0.1684993 -0.14704174 0.048549544
0003b0 f0 cb b7 be 72 7f f0 bd e3 40 5b 3d 43 e3 a0 3d
       -0.3589778 -0.11743058 0.053528678 0.07855847
0003c0 b0 87 1c bc da 2e 02 bd 71 9f 01 be 2e 27 16 bc
       -0.009553835 -0.031782962 -0.12658478 -0.009164615
0003d0 23 f9 bf 3d a4 55 f2 bd 24 85 e7 be a1 1c 3c be
       0.09373691 -0.11832741 -0.45218766 -0.18370296
0003e0 9f 0e 0b be 44 92 fc bd 32 c7 10 be d3 38 ca be
       -0.13579796 -0.123325855 -0.14138487 -0.39496478
0003f0 dd 9c 8a bc 97 51 89 be 66 a2 f8 bd c4 f2 3a be
       -0.016920501 -0.2682006 -0.1214035 -0.1825667

module.down_blocks.0.unet_block.tdt_block.transformer_blk_stack.0.attention.value.bias f4 [24]
000000 a3 c3 34 3e 1c 7f 9f bd c2 86 c8 be fa 57 04 3f
       0.17652754 -0.07787916 -0.39165312 0.5169674
000010 21 48 4d ba 49 05 c9 be 1f 20 0c be 4e b7 9d bd
       -0.00078308774 -0.39261845 -0.13684128 -0.07700978
000020 99 36 c2 3e b2 19 45 be 3b d7 37 be 75 c0 42 3e
       0.3793228 -0.19248083 -0.17953198 0.19018729
000030 a0 b5 98 bd cd aa 8d 3e 22 f3 91 be 1f ec a7 3e
       -0.07456517 0.27669373 -0.28505808 0.32797334
000040 b4 d9 cc bd 88 a6 8b 3e a6 62 60 be b6 6f 8b 3e
       -0.10002461 0.2727549 -0.21912631 0.27233666
000050 98 ee 64 3d 78 4d 10 3e 8e bf 7b be 85 2c 85 3e
       0.055891603 0.14092052 -0.24584791 0.26010528
